be/app/ml/model2.pt (torch, 3326 bytes, 5 tensors)

fc1.weight f4 [16, 5]
00000000: 9a15 34bf 19c4 e73e ed97 543f 3725 f83e
00000010: f9e4 233f a349 5c3f 1f22 82be c0e3 bd3e
00000020: 305f 84be 17f1 03bf 9abf 3cbf 0fb9 0c3e
00000030: bb0a a93e b7eb fa3e 4b9f 763f 5e10 753f
00000040: ff2e 06bd 012e 463d 3915 6c3b 9370 f1be
00000050: ca65 7a3f 7b37 923e e78c ba3e 1a02 973e
00000060: 4a6c 22bf 755b a0be dd8b b63e 3136 60bf
00000070: c30a b83e 5da0 083f 3adc 833f 816a bc3d
00000080: 91f6 313e 4a70 8a3e fd92 2fbf 00db 883f
00000090: b695 c73e a3d5 973e 7820 d33e 5471 25bf
000000a0: cae2 afbe de6d 113f 14ea 433e d369 513e
000000b0: 5489 833f 5559 eebe 4569 643e 8824 913d
000000c0: 249b 373e 82f3 593f f621 4cbf de46 e43e
000000d0: 7cb8 703e d5b5 123f 1b77 803f cf76 25bf
000000e0: 8aa9 bc3e 3319 e6bd b4b1 d43c a4b5 2d3f
000000f0: 2d94 703f 9366 253f 932d 113f ca90 d53e
00000100: 56b1 be3e c565 343e 4af8 893e 130d 1d3e
00000110: dd78 45bd 75e7 f4be e36f 3b3f fcfd 4cbf
00000120: b024 eabe caa6 20bf 1940 d53e c6a9 3e3f
00000130: 027e 8c3e 6e39 773e 08f1 c23e 5111 15bf
-0.7034546 0.45266798 0.8304432 0.48465893 0.6402126 0.8604986 -0.25416657 0.37087822
-0.25853872 -0.5153975 -0.7372986 0.13742469 0.33016 0.4900796 0.9633681 0.957281
-0.032759663 0.048383716 0.0036023392 -0.471562 0.9781157 0.28557953 0.36435625 0.2949379
-0.63446486 -0.31319776 0.35653582 -0.8758269 0.3594571 0.53369695 1.0301583 0.092000015
0.17379214 0.27038795 -0.6858366 1.0691833 0.38981408 0.2965518 0.4123571 -0.6462605
-0.34352714 0.5680827 0.19132262 0.20450525 1.0276284 -0.4655253 0.22305782 0.07087046
0.17930275 0.8513719 -0.7973932 0.44585317 0.23507875 0.57308704 1.0036348 -0.6463441
0.36848098 -0.11235275 0.025963642 0.67855287 0.939761 0.6460964 0.56710166 0.41712028
0.37244672 0.17616947 0.26947242 0.15337019 -0.048210967 -0.47832838 0.732176 -0.8007505
-0.45731115 -0.627545 0.41650465 0.74477804 0.27439886 0.24143001 0.38074517 -0.5822955

fc1.bias f4 [16]
00000000: 57d5 193f bba6 313f 4450 a8bd fb29 dd3e
00000010: 3472 8c3e c8f1 51be f50f 043f 284a b53e
00000020: a1b2 91bd 6ac9 e13e 8f14 e2bd 90a4 0f3e
00000030: 2fba 7e3f e491 3c3f ddb8 8dbd da19 2e3f
0.60091156 0.69395036 -0.082184345 0.4319609 0.2743088 -0.20502388 0.5158685 0.3540814
-0.07114149 0.4409898 -0.110390775 0.1402762 0.99502844 0.7366011 -0.069200255 0.68008196

fc2.weight f4 [8, 16]
00000000: 9997 2d3d 72a3 fb3d 6238 3fbe 822c 1a3e
00000010: 3bae c83b 6285 6dbe 57f0 353e 9915 bf3b
00000020: 38cf f0bd f375 15be f875 583e a011 ebbd
00000030: df2b 50be bfe1 67bd 5608 6dbe 5dbc 6bbe
00000040: f798 cfbd 2101 323f e315 27bf eba2 443f
00000050: 23d4 6b3f 47be 25bf ee0f 343f 1a9d 4f3f
00000060: 3ac2 a4be 31bd 17be 8411 84be 740b 04bf
00000070: 82e6 bc3e 5d34 1a3f 9121 533f 3cb4 c63e
00000080: 94b5 263e 76ab a03e 9603 cebe 2dfa 423f
00000090: 3b10 333f 7e65 0dbf e31b 323f 8789 3b3f
000000a0: a405 bcbe 4196 e6bc b649 38bf 9557 95be
000000b0: 294a a23e 5f26 293f a184 623f e1d1 c23e
000000c0: 977a f53d 8c1d 113f bef1 2abf 44fb f03e
000000d0: 8779 5f3f 63d4 52bf 0305 413f 961e 6a3f
000000e0: aadb 06bf ea96 1ebe 6d34 01bf e10d fbbe
000000f0: 06d8 023f 51f5 1e3f ed27 1b3f 0d2b 473f
00000100: aa89 94be 7277 52be 604b edbc 340d 25bd
00000110: d608 d53d f454 92bd f627 393e 8990 963d
00000120: c85e 62be 64be bcbc a860 63be 3177 4dbe
00000130: a97f 423e aa72 36bd fcc1 44be 5191 25bd
00000140: 7577 593f 0d41 04bf a9e6 7a3f cee1 0dbf
00000150: 695c 64bf 7b1c 323f fc9c 0cbf c83c 0ebf
00000160: 8747 463f e4ee 203f 8fad 803f 0032 443f
00000170: 0191 df3e cc84 55be 5d53 45bf 6c0e a1be
00000180: 6c8c 90bd 28f6 58be d079 76be 60d5 143e
00000190: 2c80 aebd 5086 de3c 105d 02bd fe75 48be
000001a0: 08b9 1c3e d029 ddbc 70d1 82bd 0084 ee3b
000001b0: 706d 72bd 70eb bb3c ec26 103e ba0d 663e
000001c0: 5467 23be 2034 bbbc 1c14 f8bd 1048 d8bc
000001d0: 40e3 63bd 640a f0bd c0a8 85bb c09f 98bb
000001e0: deb5 76be ee29 063e 64bc 16be 2271 653e
000001f0: ecb0 dfbd ec33 82bd 48df 643e 4689 76be
0.042380903 0.12287034 -0.18673852 0.15056041 0.0061242855 -0.23195413 0.17767464 0.005831432
-0.11758274 -0.14595775 0.21138752 -0.11477971 -0.20329235 -0.056611773 -0.23147711 -0.23021074
-0.101365976 0.6953297 -0.6526777 0.76811093 0.9212057 -0.64743465 0.70336807 0.8109909
-0.32179433 -0.14818265 -0.25794613 -0.51579976 0.36894614 0.6023615 0.82473093 0.38809383
0.16280204 0.31380814 -0.4023711 0.7616299 0.6994664 -0.5523299 0.695738 0.73256725
-0.36723053 -0.028147819 -0.71987474 -0.29168382 0.31697205 0.66074175 0.88483626 0.3805075
0.11986273 0.5668571 -0.6677512 0.470667 0.8729481 -0.82355326 0.7539827 0.9145292
-0.5267893 -0.15487257 -0.5047062 -0.49034026 0.51110876 0.62093073 0.60607797 0.77800065
-0.2901128 -0.20553377 -0.028966606 -0.040295795 0.10402076 -0.0714511 0.1808165 0.07351787
-0.22106469 -0.023040004 -0.2220484 -0.20064999 0.18994011 -0.044542946 -0.19214624 -0.040421788
0.849479 -0.5166176 0.9800821 -0.55422676 -0.89203507 0.6957471 -0.5492704 -0.55561495
0.7745289 0.6286452 1.0052966 0.76638794 0.43665317 -0.20851439 -0.7708033 -0.31456316
-0.07058033 -0.21187651 -0.24069905 0.14534521 -0.085205406 0.027163655 -0.031827033 -0.1957626
0.15304959 -0.026997477 -0.06387603 0.007278919 -0.0591864 0.022939414 0.14077348 0.22466174
-0.15957385 -0.022852004 -0.121132106 -0.02640155 -0.055636644 -0.11720732 -0.0040789545 -0.0046577156
-0.24092814 0.13101932 -0.14720303 0.22406438 -0.10922417 -0.063575596 0.223508 -0.24075803

fc2.bias f4 [8]
00000000: f739 693c 0350 093f 36b5 8a3e deaa 813e
00000010: fb5b 76be ad0e e83e 880e 6ebe 1c1d 0dbe
0.014235011 0.53637713 0.27091378 0.25325674 -0.24058525 0.45323697 -0.2324773 -0.13780636

fc3.weight f4 [1, 8]
00000000: f875 a73e a88c 60bf 1da4 7fbf f680 5bbf
00000010: dcb3 773e f12a 8f3f c6c7 9cbe d23a 583e
0.3270719 -0.87714624 -0.9985979 -0.85743654 0.24189705 1.118498 -0.30621165 0.21116188
